.vscode/chrome/optimization_guide_model_store/20/E6DC4029A1E4B4C1/95ACA63EDDB6849D/model.tflite (tflite, 64852 bytes, 5 tensors)

arith.constant f4 [1, 64]
000000 74 e9 c3 3e 6e e1 a1 bc b2 24 fa 3d 84 f6 47 3e
       0.38264048 -0.019760814 0.1221403 0.19527632
000010 f7 07 80 be 0f e7 93 3d 81 71 8b be 03 67 8e be
       -0.25006077 0.07221805 -0.27235034 -0.27812967
000020 64 23 06 3e c0 98 97 bc a8 98 a2 be 31 95 30 3e
       0.13099438 -0.018505454 -0.31757092 0.17244412
000030 6f 3f 2a 3d 69 12 8d 3e 4b 43 a3 3e f0 47 c7 bd
       0.0415644 0.27553108 0.31887278 -0.09730518
000040 ab 9f 4b 3e a6 3e cb 3c 13 4d 1c bb 76 3e a0 bd
       0.19885127 0.024810147 -0.002384965 -0.078244135
000050 5a 98 ce 3e c5 76 40 be a1 ed a1 be 73 8a 9c 3e
       0.4035061 -0.18795307 -0.3162661 0.30574378
000060 cd fe 24 be 79 f4 1e be f9 82 1f be 02 87 41 3d
       -0.16112824 -0.15522946 -0.15577306 0.047247894
000070 a4 fe 45 3f 2f 90 5a 3d 29 1d 0a be 87 8d a8 be
       0.77341676 0.05336016 -0.13487686 -0.32920477
000080 b2 29 96 3e fa f6 af 3c 91 23 20 3e 4a 4d 68 be
       0.29328686 0.021480072 0.15638568 -0.22685733
000090 27 83 20 be 3d 42 7e 3e 02 ce 02 be c6 bd 93 3d
       -0.1567503 0.24829955 -0.12773898 0.07213931
0000a0 df 94 76 3e 48 53 56 be 63 b9 98 be cf e5 40 3e
       0.24080227 -0.20930207 -0.2982894 0.18837665
0000b0 a5 a7 c2 3e 12 72 94 3d 81 cb 84 3e 5b 7e 0f be
       0.38018528 0.0724832 0.2593651 -0.14013045
0000c0 de 75 ce bd 2e 9d 09 3c f5 ac 41 3e 33 dd 88 3e
       -0.10081075 0.008399291 0.18913634 0.26731262
0000d0 5e 6f a9 3e b5 0f c0 3c b0 c8 79 3e f5 b5 0f 3e
       0.3309278 0.02344499 0.24392962 0.14034255
0000e0 49 67 6b bd 0a 4a 1d be 70 d2 c4 3e 0f d0 85 be
       -0.057471547 -0.15360275 0.384418 -0.261353
0000f0 58 ba 96 3e 2c c0 71 bd 14 75 b8 3d cc 69 af be
       0.29439044 -0.05902116 0.09006706 -0.34260404

arith.constant1 f4 [64, 128]
000000 ea ef 11 3e 00 c5 a4 bc 26 a1 ff bd 66 a0 d0 3d
       0.14251676 -0.020113468 -0.124819085 0.101868436
000010 c8 5b d7 3d a4 6e af 3d 51 c3 59 be 3b 34 0d 3e
       0.10515553 0.08566025 -0.21265914 0.13789456
000020 69 0a e8 bd f5 38 3d bd dc 0b 75 bd 23 d1 aa 3d
       -0.113301106 -0.046196897 -0.059825763 0.08340671
000030 94 f8 b5 bd aa 19 c9 3c a9 89 97 3d 60 4b de bd
       -0.08885303 0.02454837 0.073993035 -0.108542204
000040 8e 04 26 3e f2 6d 36 bd f5 16 16 be 73 d2 07 3e
       0.16212675 -0.044538446 -0.14657195 0.13263874
000050 3a 55 b1 3d 17 13 9d bd 38 ee d7 3d 4e 0b fc bd
       0.08658834 -0.07669657 0.105434835 -0.12306844
000060 97 be e0 3b 45 39 27 3e 2b e1 18 3e 2f df 65 3d
       0.0068586576 0.1633044 0.14929645 0.056121048
000070 ac 18 28 3e 5a bc 7b bd 78 d7 a4 bc f3 76 57 bd
       0.16415662 -0.061458923 -0.020122275 -0.052603673
000080 01 8c f4 bd 6c 81 1b bd db 89 06 3e 80 37 af 3d
       -0.11940766 -0.037965223 0.13138525 0.08555508
000090 9e ab 1b 3d 5b cb fa 3d 65 a9 f3 3c f2 24 4b bd
       0.038005464 0.12245818 0.02974386 -0.04959578
0000a0 27 0c 20 3e 8a 23 bb 3d fa 7f ac bd 93 1c 04 be
       0.15629636 0.09137638 -0.08422847 -0.12901525
0000b0 29 19 39 be d8 40 4e bd af 2f 0d 3e cc 07 2a be
       -0.18076004 -0.05035481 0.13787721 -0.16604537
0000c0 b3 6f 14 3e 25 0a 3b bd d2 c7 d6 bd 81 14 85 bd
       0.14495735 -0.04566397 -0.104873314 -0.064980514
0000d0 f4 81 6d bd d8 57 86 3d c6 5a 31 3e 91 f4 17 3e
       -0.05798526 0.065597236 0.17319784 0.14839388
0000e0 31 ec 02 be f3 99 08 3e 35 4f 75 be 09 e4 0c 3e
       -0.12785412 0.13339977 -0.23955996 0.13758864
0000f0 cd de 31 bd 2f 14 0c 3d c7 b7 ef 3d db da d3 3d
       -0.04342537 0.034198936 0.117049746 0.10344478
000100 de 03 f2 bc c3 62 23 be 6f 73 27 be 0d 76 cb bc
       -0.02954286 -0.15955643 -0.16352628 -0.024836564
000110 35 32 05 be 75 86 be 3d 3d 17 cc 3c c2 16 11 be
       -0.13007434 0.093029894 0.024913425 -0.14168838
000120 2f 29 42 bd d6 f6 d8 bd 1d 43 18 3e ba 6b 7a be
       -0.047402557 -0.10593955 0.14869352 -0.24455157
000130 fc 48 2b 3e 49 07 6c be ef 21 99 bd d8 86 8b bc
       0.1672706 -0.23049654 -0.074771754 -0.017032072
000140 ba 9c c9 bb 56 84 17 be af 16 a5 bc 05 cb 2c be
       -0.0061527165 -0.14796576 -0.020152418 -0.16874321
000150 1f 00 8b 3c af 97 87 bd 8e e2 ce 3d 99 92 d4 3d
       0.016967831 -0.06620728 0.101018056 0.10379524
000160 90 45 8f bd 8b d4 1d 3e 18 92 b3 bb aa cc 98 bd
       -0.0699569 0.1541311 -0.005480062 -0.074609116
000170 d3 f4 6a bb b4 a5 53 3e 07 fe 22 be 1d 1b f1 bd
       -0.0035851493 0.2066868 -0.15917216 -0.117727496
000180 6f 4e ec bd c8 77 e3 bd 92 d8 64 bd 2b 0d db 3d
       -0.115383975 -0.11106831 -0.0558706 0.10695871
000190 01 3e ae 3d c7 67 06 be 87 d3 a0 3c 90 99 1a bc
       0.0850792 -0.13125525 0.019632114 -0.009436026
0001a0 2c 9a 00 3e e5 32 0d 3e 5d ed 1b 3e 46 7f 85 bd
       0.12558812 0.13788946 0.15227266 -0.06518416
0001b0 94 8e f9 bc 3b 35 21 3e 9e 47 22 3d 42 45 c6 bd
       -0.030463494 0.15742962 0.03961908 -0.09681179
0001c0 5d 5d 01 be 0a 8f 1f be 43 87 1e 3e 25 3d 47 be
       -0.12633272 -0.15581909 0.15481286 -0.19456919
0001d0 7c a4 b4 bd 43 8b 13 3d f6 f9 02 3e 14 27 89 be
       -0.088204354 0.036021482 0.12790665 -0.26787627
0001e0 ed 91 dd bd c4 9f 4c 3e e6 d5 f1 bd cc db 03 be
       -0.10818849 0.19982821 -0.11808376 -0.12876815
0001f0 2b b9 2f bd 83 a0 7a be 8d de 2e 3d a7 b3 bf bd
       -0.0429012 -0.24475293 0.04269271 -0.09360438
000200 f0 2a a0 bd 18 a9 06 be 0d 72 85 bd 9f 5d 03 3e
       -0.0782069 -0.13150442 -0.06515894 0.12828682
000210 be d0 ea 3d b5 fe bd bb 25 0b 84 3d f4 fe d6 bc
       0.11465596 -0.0057981857 0.06447438 -0.026244618
000220 67 44 fc bc 56 2f 80 bd b0 4a e1 3d 08 f4 27 3e
       -0.030794336 -0.062590286 0.11000574 0.16401684
000230 bb c9 85 3d af df c4 3d 09 6d e9 bd ed 32 11 3e
       0.06532618 0.09612977 -0.1139775 0.14179583
000240 97 7f d2 3d dd 12 0f be cd c4 21 bd 53 a2 ce 3c
       0.10278242 -0.1397204 -0.039494324 0.025223887
000250 d5 03 eb bd 43 16 93 3c 86 b6 64 3d 4c f2 d7 3d
       -0.1147534 0.017954951 0.05583813 0.10544261
000260 08 b0 c5 3c 37 a0 14 be fc 7d 07 3e cf e3 21 bd
       0.02413179 -0.14514242 0.13231653 -0.039523896
000270 e7 f3 03 3d 6a 81 2e bd 95 68 1b 3e a4 9f 2a bd
       0.032215025 -0.042603888 0.15176614 -0.04165615
000280 c7 f2 bf bd 47 60 0a 3e 35 f1 0b 3c 54 7d 1a 3c
       -0.09372478 0.1351329 0.008541395 0.009429295
000290 5f ba da bd 0d d9 28 3e 59 52 e3 bb cf ea 00 3e
       -0.10680079 0.16489048 -0.006937307 0.12589572
0002a0 74 b0 b4 3d 6d 68 1d be 6c 36 fd bd 52 27 31 3e
       0.08822718 -0.15371867 -0.12363896 0.17300156
0002b0 00 c9 2f be 76 bd de 3d 28 22 0c 3d de 30 e0 bb
       -0.17166519 0.108759806 0.03421226 -0.006841763
0002c0 e2 f8 50 bc 28 b3 63 bd 8e 8e 13 be 10 d7 2f be
       -0.012754651 -0.05559078 -0.14409849 -0.17171884
0002d0 57 ba 4f 3d 4e cb 50 3c 34 d9 32 be 4f 10 56 bd
       0.050714817 0.012743784 -0.17465669 -0.052261647
0002e0 00 52 8c bd ff 76 a8 bd 04 d5 1d 3e a5 ac 07 be
       -0.06851578 -0.08225822 0.1541329 -0.13249452
0002f0 8d c6 96 3c 61 f7 b0 3c e8 fe 26 3e cc b4 3c 38
       0.018405223 0.021602334 0.16308177 4.4991073e-05
000300 b1 48 29 be 8b b0 21 be 07 fa 0a be 6a ea 2f be
       -0.16531636 -0.15790002 -0.1357194 -0.17179266
000310 ff f4 45 3c b8 8e b6 3d 36 9b 18 bd 5b 48 a9 3d
       0.012082337 0.0891394 -0.037257396 0.08265754
000320 d1 a1 ee 3d 5a cf b8 bd c9 96 ba bd d7 c2 f8 bd
       0.11651958 -0.09023924 -0.09110791 -0.12146538
000330 41 1d 19 be 71 1c 03 be 45 f3 8a bd 17 dc 00 3d
       -0.14952566 -0.12803818 -0.06784681 0.031459894
000340 c6 5e f2 3d 16 c9 9b 3d ca d1 f8 bc c1 35 b9 3c
       0.11834483 0.076067135 -0.030373473 0.02260864
000350 9b 28 2b be 93 80 9b 3d 22 b3 3b bd 47 8a d3 bd
       -0.16714709 0.07592883 -0.04582513 -0.10329109
000360 f8 2f c3 bd f7 f3 9c 3d 8a c3 9a bc 3a 10 01 be
       -0.09530634 0.0766372 -0.018892068 -0.12603846
000370 1a c6 69 3d 20 ac ab 3d ad 60 d9 3d b7 2d 18 be
       0.05707369 0.083824396 0.106141426 -0.14861189
000380 7c 50 d3 bd 5c a4 ed bd 11 17 08 be 55 5c 1a be
       -0.103180856 -0.11603615 -0.13290049 -0.15074284
000390 5a 88 c8 bd 8c 84 17 3d c5 e9 8c 3d be 67 03 be
       -0.09791632 0.03699164 0.068805255 -0.12832543
0003a0 9b 39 1b be 07 26 f6 3c 98 6a 28 bd d8 21 6a 3a
       -0.15158693 0.03004743 -0.04111728 0.0008931435
0003b0 75 fc dc bc 22 f4 45 3d 2f 59 c0 bd 91 94 21 3e
       -0.02697585 0.048328526 -0.093920104 0.1577933
0003c0 e6 4b 49 3c 85 ca d7 3d c3 2e 44 bd d4 63 bf bd
       0.012286162 0.105366744 -0.047896158 -0.093452126
0003d0 68 3d e6 bc 35 be 03 be 2f 97 6a bc 03 bf f9 3c
       -0.028105453 -0.12865527 -0.014318272 0.03048659
0003e0 7c 60 7a bd 35 78 94 bd b9 4e 15 3e 03 a2 82 3d
       -0.06112717 -0.0724949 0.14580812 0.063785575
0003f0 80 9f 40 bd 13 2d 03 be d8 61 f9 bc 76 fd d5 3d
       -0.04702711 -0.12810163 -0.030442163 0.104487345

arith.constant2 f4 [128, 12]
000000 b7 9e 6e 3d 08 26 84 bd d2 bb be bd 6c bc 0a 3e
       0.05825683 -0.064525664 -0.09313168 0.1354844
000010 d2 f4 1c be 26 77 43 3e e8 55 9e bc 22 ad 05 be
       -0.15327767 0.1908842 -0.019328073 -0.13054326
000020 4b 97 e5 3c 5a 81 91 ba 68 1d e1 3c 30 4f 69 3e
       0.028026244 -0.0011101172 0.027479842 0.22784114
000030 59 b5 fd bd 4e 49 1a be bd e3 cc 3d ed d7 af 3d
       -0.12388105 -0.15067026 0.10004375 0.085861064
000040 4d 9f cc bd a9 a1 09 bd 7a 3f 37 3e aa 0a 0f 3e
       -0.09991322 -0.033601437 0.17895308 0.13968912
000050 3c a5 77 bd d2 92 c7 3c 75 d7 d4 bd d4 d8 04 be
       -0.060460314 0.024362002 -0.10392658 -0.12973338
000060 9c e8 b7 bc 3b 18 0c 3e 73 98 5d 3d bf 57 2b be
       -0.022449784 0.13681118 0.054100465 -0.16732691
000070 4b 4e 51 bd fa 30 1e be 00 f6 45 be be 99 19 be
       -0.051100057 -0.1544837 -0.19332123 -0.15000054
000080 b3 cc 18 3e ab a2 7a 3e 2c 70 a2 bd ad aa 4b 3e
       0.14921837 0.24476115 -0.07931551 0.19889326
000090 15 d3 6e 3d 2e fd 11 3e 13 e9 1e 3c 91 16 21 3e
       0.058306772 0.14256737 0.009699124 0.15731265
0000a0 95 d8 b9 3d f3 88 92 3d 02 fe 1c be c3 7a 27 bd
       0.09074513 0.07155027 -0.15331271 -0.04088856
0000b0 4a af 51 3c 8a d7 04 3e 10 bc 62 3c 70 42 a0 3e
       0.01279814 0.12972847 0.013838783 0.31300688
0000c0 3e a9 94 3b 2f 26 8c 3d f5 31 04 bd 8b 17 5a bd
       0.004536777 0.068432204 -0.032274205 -0.05324511
0000d0 87 a7 37 3e a5 17 5b 3e 12 68 ea bd ef 25 f0 3c
       0.17935 0.21395738 -0.11445631 0.029314963
0000e0 a4 86 0a 3e f2 7d bd bd a7 27 60 3e d8 40 2e 3e
       0.13527924 -0.09252538 0.21890126 0.17016923
0000f0 f0 b6 d4 bd 7b b0 b3 b9 de a9 c1 3d 71 9a 53 be
       -0.10386455 -0.0003427303 0.09456228 -0.20664383
000100 4e c8 d0 3d 9c 00 cf bd de d6 45 be 04 26 51 bd
       0.10194455 -0.10107538 -0.19320247 -0.051061645
000110 de 7b 0f 3e 4e cb 4c 3d cf c6 ff bb af 28 3d be
       0.14012095 0.049998574 -0.0078056823 -0.18472551
000120 7e dc 47 3e 87 a4 9b 3d 0a 86 71 bc 69 f2 4a 3d
       0.19517705 0.075997405 -0.01474143 0.049547587
000130 a3 18 3b 3e c6 cb dd 3d cb b7 35 be a3 aa cf bd
       0.18271117 0.10829882 -0.17745893 -0.10139968
000140 33 49 dc bc 46 9e 0c be a6 75 9e 3c c1 0d 16 3d
       -0.026890373 -0.13732252 0.019343209 0.03663421
000150 50 99 fd bd ee d6 1b be 18 ba 9f 3d 6c f5 a8 3d
       -0.12382758 -0.15218708 0.077991664 0.082499355
000160 b3 ab 9a bd 64 64 ac 3c c2 73 27 3e 9d 69 dc 3d
       -0.0755228 0.021043964 0.16352752 0.10762332
000170 9f 88 88 bd 23 1b d6 3c 45 8a 10 3e c6 c8 ba bd
       -0.066666834 0.026135987 0.14115246 -0.09120326
000180 d7 d5 5d 3e 87 77 09 3e f5 72 ab 3d 81 3d 2d 3e
       0.21663605 0.13424502 0.08371536 0.16917993
000190 ff 0a 0b be 2d 06 0f 3e d3 0e 7b 3d 6d 28 eb 3d
       -0.13578413 0.139672 0.061293434 0.1148232
0001a0 09 80 85 3e 28 0d 7d ba 26 c4 3c 3b ed d1 1b 3e
       0.26074246 -0.00096531445 0.0028803437 0.15216799
0001b0 58 6b 48 be 10 d9 70 3e ed 4f 16 bd 8b de 5d 3e
       -0.19572198 0.23520303 -0.036697317 0.21666925
0001c0 c7 14 d7 bd 20 3a 46 3d f1 db b6 3d 19 61 76 bb
       -0.1050201 0.048395276 0.08928669 -0.0037594496
0001d0 a2 82 bb bd 85 ee 01 be 18 a5 fc bd 97 4b 26 bd
       -0.091557756 -0.12688644 -0.12336177 -0.04059943
0001e0 db 2f 3a be 04 2a dc 3c a4 a0 f8 3d 4c 09 a2 bc
       -0.18182318 0.026875503 0.12140015 -0.019779824
0001f0 50 d5 b9 3d b7 c0 1a 3d ca fb 96 be be 2e 16 3e
       0.09073889 0.037781443 -0.29488975 0.14666268
000200 e4 2e 26 3e e1 e4 4e bc 60 ea 04 bc 78 c4 1f 3e
       0.16228825 -0.012627811 -0.00811252 0.1560229
000210 64 6f 6d be 68 3e 00 3e 41 d3 4a be 4a fb 4b 3d
       -0.23187023 0.12523806 -0.1980715 0.049800195
000220 df 13 9b bd 05 a1 13 be cd 18 91 3d 2c 96 1d be
       -0.075721495 -0.14416893 0.070848085 -0.15389317
000230 6e 30 0a be 98 27 41 3e 40 ff c0 bd 1e 65 39 3e
       -0.13495037 0.1886276 -0.09423685 0.1810498
000240 86 17 2c 3d 5e 00 2f be cb c8 96 bd a7 fe 2f be
       0.04201462 -0.17089984 -0.07362517 -0.17186986
000250 c5 82 d0 bd 07 98 30 be ff 08 14 be 7c 59 02 3d
       -0.10181192 -0.17245494 -0.14456557 0.03182362
000260 55 d0 47 be af bf a1 3d aa d7 41 3e e3 75 d5 3d
       -0.19513066 0.07897889 0.18929926 0.10422876
000270 38 f2 2e 3e 59 98 5f 3c df c9 3e 3e 5d e2 0f bd
       0.17084587 0.013647162 0.18631695 -0.035127986
000280 3b 0d ad bd d0 1b 53 3e b4 52 19 3e 13 15 87 bd
       -0.08449789 0.20616078 0.14972955 -0.065958165
000290 af 17 0e 3d f0 1c 9f bd 08 94 cd bd fc 00 2a bc
       0.034690555 -0.07769191 -0.10038 -0.010376211
0002a0 b1 a8 4c 3d 7b 39 89 3b 73 9c 40 bd 19 7a 1e 3d
       0.049965564 0.0041877604 -0.0470242 0.03869066
0002b0 3c ae c2 bd ed a8 24 3d 23 89 b2 bb ba 30 30 be
       -0.09505889 0.040200163 -0.005448477 -0.17206088
0002c0 06 44 08 be 53 70 00 3e 55 6b a6 3d 5d de 53 3e
       -0.13307199 0.12542848 0.08125941 0.20690294
0002d0 85 64 e0 3d 30 1d bb 3d a4 ac a0 3d 69 ea d8 3d
       0.109566726 0.091364264 0.078454286 0.10591585
0002e0 c5 05 9e bd d1 bd 15 bd 40 56 96 bd 21 e3 2a bc
       -0.07715944 -0.036557976 -0.0734067 -0.010430128
0002f0 17 97 1e bd 32 87 8d bd 95 29 76 3d 98 24 73 be
       -0.03871831 -0.06910552 0.06009825 -0.23744428
000300 53 b3 68 be 15 2f 16 be 13 6f 17 bd 96 e1 14 be
       -0.22724657 -0.14666398 -0.036971163 -0.14539179
000310 f3 4d 1f be df 81 83 3c 6b b6 73 be 44 15 c4 bd
       -0.15557079 0.016053138 -0.23800056 -0.095743686
000320 6e 9d b2 bd 52 c3 40 bd 19 bd e7 bc 55 fd 7e bc
       -0.087214336 -0.047061272 -0.028288411 -0.015563329
000330 7c a1 00 bc 83 33 e7 bd 45 a3 ac 3c 36 90 a2 3c
       -0.007851001 -0.11289122 0.021073947 0.019844156
000340 b8 a2 04 be fb 45 28 be 89 9f 8a bd d4 cb 9a bd
       -0.12952697 -0.16432945 -0.0676871 -0.075584084
000350 1c 08 06 3d f1 23 bc bd 17 e8 53 3d 7c a4 63 3d
       0.032722577 -0.09186543 0.05173501 0.055576786
000360 b6 4a 2c 3e 55 aa e4 3d e2 02 3c be f5 7c 02 3e
       0.16825375 0.11165301 -0.18360475 0.1274298
000370 98 7d 40 bc 75 bc 50 3d 93 20 b7 bd ad 11 04 bc
       -0.011748694 0.050960977 -0.0894176 -0.008060855
000380 a2 4a ae 3c 00 99 33 3b f5 36 54 3e a6 08 84 be
       0.021275822 0.0027404428 0.2072409 -0.25787848
000390 b1 b7 0a be f6 ae 9a 3d cb d0 17 3e 07 e8 d2 3d
       -0.13546635 0.075529024 0.14825742 0.10298162
0003a0 84 2a 6d 3e ea 58 8e 3d 48 90 96 3d c8 18 25 bd
       0.2316075 0.06950553 0.07351738 -0.040306836
0003b0 02 d0 c4 bd ad e4 36 3e 4c 89 d5 3c d6 b8 80 3d
       -0.09609987 0.1786067 0.026066445 0.06285255
0003c0 81 49 3e 3e 9c 33 1a 3e 1d 13 e9 3d 58 f1 4c 3e
       0.18582727 0.1505875 0.11380599 0.2001394
0003d0 8a 64 c4 bd d3 de b7 bc f0 85 22 be 4e 07 03 be
       -0.09589489 -0.022445118 -0.15871406 -0.12795755
0003e0 49 29 78 3c 64 ce 04 be b4 4d ad 3c 06 2f ed bc
       0.015146562 -0.12969357 0.021155216 -0.028953087
0003f0 56 32 60 be 6e 79 22 be 1b 79 5c 3e 06 ea 27 3e
       -0.21894202 -0.15866634 0.21530573 0.16397867

arith.constant29 f4 [64]
000000 f0 67 28 ba e9 05 40 bb 12 e2 6c 3d 6d 32 c4 3d
       -0.00064241793 -0.0029300398 0.057832785 0.095799305
000010 c4 2a 56 bd 92 81 89 3d 2f 79 fd bc 39 1b 7c bd
       -0.05228688 0.06714167 -0.030941574 -0.0615494
000020 77 04 45 3d 18 f1 3b b8 4e 84 54 bd 2c 8f 50 bc
       0.04809996 -4.480881e-05 -0.051883988 -0.012729447
000030 24 7e 9f 3b 04 d2 28 3d 42 3b 9f 3d bc a1 38 bc
       0.004867332 0.04121591 0.077749744 -0.011269029
000040 b0 19 53 3d 11 86 aa bb 33 e1 15 bc b7 a7 f4 bc
       0.05153817 -0.0052039702 -0.00914793 -0.029865129
000050 ec 28 e6 3d e5 b4 41 bd 00 14 c1 bd a1 19 1e 3d
       0.11238274 -0.047291655 -0.09427643 0.03859866
000060 14 b8 7e 3a 34 43 0b bd 93 3c a5 bb 5b 7d 43 3d
       0.0009716761 -0.033999637 -0.0050426214 0.04772697
000070 4d eb 4b be 0a c1 89 3c 09 93 ab bd 6b 20 fc bc
       -0.19913979 0.016815681 -0.08377654 -0.030777177
000080 fe f5 d3 bc 6a 19 80 bc e9 e0 13 3d 09 9e c0 bc
       -0.025874134 -0.015637118 0.036103163 -0.023512857
000090 85 f4 34 bc ef 24 88 3d 24 36 76 bc ab bd 0b 3d
       -0.011044626 0.066476695 -0.015027557 0.03411643
0000a0 71 fe ac bb b6 d6 8a bd 0e 62 4e ba 8a 5c 46 3d
       -0.005279355 -0.06779234 -0.00078728877 0.048428096
0000b0 41 5a d1 3d 8b 1e 2d 3d 16 4b b0 3d ff 2a 37 bd
       0.10222293 0.042265456 0.086080715 -0.04471874
0000c0 81 9a 0f bd a0 2d 66 bc 7e 53 0d 3d a5 a2 3f 3d
       -0.035059456 -0.014048964 0.034503452 0.04678597
0000d0 56 d2 c3 3c b3 e5 a2 bb 13 e9 b2 3d bd 68 ff 3c
       0.023904007 -0.00497123 0.08735862 0.031177873
0000e0 48 db 01 3b db d6 1a 3c b6 02 f4 3d b9 e7 fd bc
       0.001981454 0.00945064 0.119145796 -0.030994283
0000f0 09 cd 09 3d c9 f0 82 bc e9 ec 72 3b ec 56 a5 bc
       0.033642802 -0.015983956 0.003706748 -0.02018305

arith.constant30 f4 [128]
000000 9d 47 b0 bc 61 7f d5 bc cc da ed 3c f6 15 a6 bd
       -0.021518523 -0.026061716 0.029034995 -0.081096575
000010 10 7d 43 3d c7 35 d2 bb c9 b5 1a 3d 3c a0 7d 3c
       0.04772669 -0.006415102 0.03777102 0.015480097
000020 46 5d e7 ba 7f 6f 50 bd c5 dd 78 bc dd 89 c0 3c
       -0.0017651699 -0.05088758 -0.015189593 0.023503238
000030 a1 0d d8 3d 15 60 17 3b a2 90 b2 3c ec f6 17 3c
       0.105494745 0.002309804 0.021797482 0.009275179
000040 64 05 06 bc 89 75 98 bc f6 d0 18 bd 4f 02 70 bd
       -0.008179996 -0.018610733 -0.037308656 -0.05859595
000050 7d 0d 59 bd f7 03 c5 bd b8 d2 b6 bd cd d3 0c bc
       -0.05299138 -0.09619897 -0.0892691 -0.008595419
000060 08 94 28 3d 1f 41 61 bd e6 0c 1b be 1a 1c f7 ba
       0.0411568 -0.054993745 -0.15141639 -0.0018852979
000070 62 01 98 bc 01 63 4c bd bf 94 7d bd 9f 26 27 bd
       -0.018555347 -0.049899105 -0.061909433 -0.040808316
000080 8e f9 13 3c b8 38 aa 3d da 82 ce 3d ab 8f e1 ba
       0.009031666 0.083115995 0.10083552 -0.0017208954
000090 b5 bb a8 3c ed c5 06 3c 3b 4f 3d bd 90 60 36 3d
       0.020597318 0.0082259 -0.04621814 0.044525683
0000a0 a4 28 0a 3d 71 de 21 3c 05 1c 43 3d 13 ec a5 3d
       0.033730164 0.009879694 0.047634143 0.08101668
0000b0 71 57 a1 3d 67 18 5e bc 17 7a 4a bd 1c 39 cc 3c
       0.07878006 -0.013555623 -0.04943284 0.024929576
0000c0 f4 90 c6 bc 65 aa 08 3d 3b 66 8e bd aa 65 c7 bc
       -0.02423904 0.033365626 -0.06953093 -0.02434047
0000d0 f4 b4 a9 bd 73 83 11 be 89 86 51 3d c3 4f b7 3c
       -0.08286467 -0.142103 0.051153693 0.0223769
0000e0 f2 a2 e7 3d 3f a8 96 3d d8 45 d9 3d a0 14 22 3c
       0.11310376 0.07356309 0.10609025 0.009892613
0000f0 64 b7 d4 3d f5 22 7e 3c 41 e9 9b bd 81 03 41 3b
       0.103865415 0.015511264 -0.07612849 0.0029451551
000100 01 e7 d1 bc fe 64 53 3c 60 87 57 3d c3 ed ee bc
       -0.025622847 0.012902496 0.052619338 -0.029166108
000110 c0 50 d7 3c 38 3b 66 3c b9 97 83 bc 18 cb cf 3c
       0.026283622 0.014052205 -0.016063558 0.025365397
000120 16 d1 79 bd 7b d0 71 3c bd d0 b1 bd 69 df 20 bd
       -0.060990416 0.014759178 -0.08682392 -0.03927556
000130 bc 34 c4 3c bd 4c a3 3d 29 8f 08 3d c6 36 f5 3b
       0.023950927 0.07973621 0.033339653 0.007483336
000140 1f 67 23 bc 3b 7b 1b bc 74 7d 1b 3c 84 74 9d bd
       -0.009973316 -0.00948983 0.00949036 -0.07688239
000150 12 11 78 3d b9 00 47 3d af 1f 1d bd a0 54 2e 3d
       0.060563155 0.048584674 -0.038360294 0.042561173
000160 8b a6 8f 3c a9 e8 b8 bd bb 48 02 bd dd 8b ec bd
       0.017535469 -0.090287514 -0.031807642 -0.11550114
000170 86 c3 87 bd 8f fc ce 3b 81 16 84 3d 57 07 68 bc
       -0.0662909 0.0063167284 0.06449605 -0.014161906
000180 2e c7 d8 bd e8 36 56 3d 81 8b 96 3c d3 60 11 be
       -0.105848655 0.052298456 0.018377068 -0.14197092
000190 8f fe 3d bd 4e 38 92 bd 71 c3 b4 bd 2c 01 c9 bb
       -0.046385344 -0.071396455 -0.0882634 -0.006134173
0001a0 99 cf b2 bc 26 87 76 3d a4 9e a8 3d 39 46 1e bb
       -0.021827506 0.06018748 0.08233383 -0.0024150743
0001b0 29 c5 9c bd fb e9 39 3d 2b 73 40 3d 1a 91 37 bd
       -0.07654793 0.045389157 0.046984833 -0.044816114
0001c0 ce 74 76 bd d4 77 43 3c 8b 7c 6c be ae fc d2 3d
       -0.060169987 0.011930425 -0.23094384 0.10302101
0001d0 2a 0f 12 3b 68 f0 41 3d 47 4e a9 3c 2b d4 99 3d
       0.002228687 0.04734841 0.020667208 0.07511171
0001e0 73 01 72 bd 95 cb 60 bd eb 0f df bc dd 97 33 3c
       -0.059083413 -0.05488165 -0.02722927 0.0109615
0001f0 5d 06 b7 bc 3f 12 4f 3d db b6 4f be 41 33 a2 bd
       -0.022341901 0.05055451 -0.20284598 -0.07919932
